models/cnn_model_skin1.tflite (tflite, 200204 bytes, 20 tensors)

sequential/conv2d_5/BiasAdd;sequential/conv2d_2/Conv2D;sequential/conv2d_5/Conv2D;sequential/conv2d_5/BiasAdd/ReadVariableOp/resource f4 [16]
00000000: 5571 cebc 771a a3bc a11d 8ebc 1914 86bc
00000010: dddb 9c3c fa6b c6bc d8e7 cdbc 2b71 f53b
00000020: a675 2dbc 0134 60bd 1551 f3bb 4c45 e0bc
00000030: 3a3f 74b8 f3e3 27bc b0a6 1bbc afab 21bd
-0.025200525 -0.01991008 -0.017348113 -0.016367005 0.019147808 -0.02422141 -0.025134966 0.0074902973
-0.010587132 -0.054737095 -0.007425437 -0.027376793 -5.8233018e-05 -0.010247218 -0.009500191 -0.03947037

sequential/conv2d_4/BiasAdd;sequential/conv2d_2/Conv2D;sequential/conv2d_4/Conv2D;sequential/conv2d_4/BiasAdd/ReadVariableOp/resource f4 [16]
00000000: a9d3 11bd 1241 2cbd fa5e 4ebc f874 dcbb
00000010: 71ca 1abd 6f17 46bb b551 bdbc 4a23 2cbd
00000020: 0c0f 903b 56a0 33bd 9d9a af3c 5562 c5bc
00000030: 2d8d 0f3c 0c9f 5cbc 55d2 bbbc 332e 4bbd
-0.035602245 -0.042054243 -0.012595886 -0.006727811 -0.03779072 -0.003022637 -0.02311025 -0.04202584
0.004396325 -0.04385408 0.02143603 -0.02409474 0.008761686 -0.013465654 -0.022927443 -0.049604606

sequential/conv2d_3/BiasAdd;sequential/conv2d_2/Conv2D;sequential/conv2d_3/Conv2D;sequential/conv2d_3/BiasAdd/ReadVariableOp/resource f4 [16]
00000000: 58c5 0dbd b1dc f0bc 75b7 883b 0f4f ab3b
00000010: ebdf 9fbb dab0 e7bc c349 4e3c 2289 cbbb
00000020: d9b1 4e3b ab28 36bd a9ed 4dbd 967f 4e3b
00000030: 17d1 813c 3ebf e4bb b49e a6bc 5566 a4ba
-0.03461203 -0.029402109 0.0041722604 0.0052279304 -0.004878988 -0.028282572 0.012590828 -0.006211416
0.003153911 -0.044472378 -0.05027548 0.0031509153 0.015846772 -0.0069808057 -0.020339347 -0.0012542704

sequential/conv2d_2/BiasAdd;sequential/conv2d_2/Conv2D;sequential/conv2d_2/BiasAdd/ReadVariableOp/resource f4 [16]
00000000: 6bea 2ebb 7252 3abd f683 4a3d 2479 25bd
00000010: 425c 08bc 5370 28bd 1b6d 03bd 1576 003d
00000020: 18ee fbbc 54a6 dcbc b50e 07bd 1cc1 29bc
00000030: be40 2abd 5808 99bb 1cf8 0a3d 2d5d 2ebd
-0.0026690017 -0.045488782 0.049442254 -0.04039873 -0.008322777 -0.041122746 -0.032086473 0.03136261
-0.03075318 -0.02693478 -0.03297301 -0.010360982 -0.04156565 -0.004670184 0.03392802 -0.042569328

sequential/conv2d_1/BiasAdd;sequential/conv2d/Conv2D;sequential/conv2d_1/Conv2D;sequential/conv2d_1/BiasAdd/ReadVariableOp/resource f4 [32]
00000000: f1f8 02bd e819 4dbd 0e7d bb3c e715 16bd
00000010: c195 a3bc 961f b2bb d44f fabb a600 593d
00000020: f939 26bc 156e 9ebc bf03 49bc 11ed e3bc
00000030: 53aa 17bc 9e16 b9bc 34c6 2f3c da92 a1bc
00000040: df23 04bc 0001 ffbb 2dd8 41bc 3cb7 14bd
00000050: 9033 7bbc 34de 9e3d a5eb 04bb d244 9ebb
00000060: e6c9 d5ba dcbb 303a 02e3 dcbb 39bf abbc
00000070: f527 6cbc 3997 fabc 88ed b73d 2671 e3bc
-0.03197569 -0.050073534 0.02288678 -0.03664198 -0.01996887 -0.0054358942 -0.007638911 0.052979134
-0.010145658 -0.0193396 -0.01226896 -0.027823003 -0.009256917 -0.022593793 0.010728408 -0.019723345
-0.008065193 -0.0077821016 -0.0118313255 -0.03630756 -0.015332118 0.07757226 -0.0020282057 -0.0048299814
-0.0016310781 0.00067418604 -0.0067409286 -0.020965206 -0.014413823 -0.030589687 0.08980852 -0.027763914

sequential/conv2d/BiasAdd;sequential/conv2d/Conv2D;sequential/conv2d/BiasAdd/ReadVariableOp/resource f4 [32]
00000000: 6a0b 3cbc 79eb 1fbd 9aa3 a7ba f5a0 bdbc
00000010: e603 cebc de2d a2bb 38f9 c6bc a920 413b
00000020: 716b 10bc f919 4abc c08f e2bb 87c3 78ba
00000030: d19f d8bc 2b3a 97bc 4ac6 77bc 7ccd d6bb
00000040: a068 fc3c cff6 5dbc 4481 7fbc d7a4 2d3d
00000050: 4076 0abd 063a 133b 293e 03bc 45a0 053c
00000060: 3459 30bd 8d52 80bc 3b23 6dbc 18dc 38bb
00000070: 05c3 bbbc e5cd 3cbc 0c84 babc 5f4b 9abc
-0.011477331 -0.039042924 -0.0012789846 -0.02314804 -0.025148343 -0.0049493155 -0.024288759 0.002946893
-0.0088146785 -0.012335294 -0.006914109 -0.0009489585 -0.026443394 -0.018460354 -0.015122959 -0.0065552574
0.030811608 -0.013547613 -0.015594784 0.04239353 -0.03380418 0.0022465005 -0.008010426 0.008155887
-0.04305382 -0.015664363 -0.014473732 -0.0028207358 -0.022920141 -0.011523698 -0.022768043 -0.018834768

sequential/conv2d_5/Conv2D f4 [16, 3, 3, 16]
00000000: a5a0 abb9 700b a13d 8308 dcbd 6cca fdbd
00000010: 8282 ffbc 6ed2 a8bd 2fb8 723d 09a6 0abe
00000020: 8686 babd 8774 23be 43bc 13be ec20 da3c
00000030: fd05 d93c ad97 55bd e5cf f6bb b9e6 fc3d
00000040: 1420 153d 80d5 e8bd 4648 9b3d 40f2 fcbc
00000050: 58d8 dfbd ff2d 05bd 2b78 cbbc a147 16be
00000060: 0272 b23c f0e0 00bd 1242 df3d b9b9 ccbd
00000070: 491b 9f3d 3578 13bd 7fe7 02bd 492c 19be
00000080: 0ad4 613d 61de c4bd 84ac 973d 7a01 373d
00000090: beab 13bc 7198 823d e13d d5bc f758 b03d
000000a0: c769 c4bd cce0 b0bd 3fa2 1cbe 20f7 d63c
000000b0: 578c 15bd e812 a83d 6c9d 603d b092 023b
000000c0: 5c7e a4bd d5ad 013d e874 57bd 2abd e33d
000000d0: c8aa cf3d b633 9dbd bd8f 22bd a0af abbd
000000e0: 0a9d 16be ccf9 b0bd edbe 033d 28ef 123d
000000f0: 0c4e 8dbb 4ac3 45bd 0688 a83d 952c 333b
00000100: 242e afbd 6e3c cb3d 1cb1 9bbd 01ad aa3d
00000110: 6c12 9bbc ce36 3a3d a434 d5bc d496 05be
00000120: 3514 1cbe c69f b43d 39e6 783d 87ad 023e
00000130: 945c e3bc 6791 483d 6180 14be c181 393d
00000140: 20ce ccbc 1fef 723c 35a3 d2bc dc8f c23d
00000150: 0e7a b93d 91f5 9a3c b8ad fabc 4694 013d
00000160: d333 03be 3bcf 643d 464b af3d d5f6 82bd
00000170: 8102 42bd eb3c b53d 41a6 dc3d 592e 073e
00000180: e976 3fbd 2625 6ebc d479 b6bc 4442 823b
00000190: f4ad 353d 0c15 ed3d 4b6f 4ebc dd38 d0bc
000001a0: 0c2b 52bd ee8c 7a3d ede6 b73d 010e d8bd
000001b0: c254 81bd 7f2e 09be 6145 21bd 3fbb d03d
000001c0: dfd9 163d 73fb b63c 6b4d 62bd 6637 a03c
000001d0: 665f b13d d16e ae3d 8611 64bd ad7f 91bd
000001e0: d7d1 c53d 4634 c4bd 6e7e f9bc 0652 b7bd
000001f0: d6f7 02be f6aa c7bb 14bb fdbd c4aa 00be
00000200: 6a16 12bd 9ca3 babd 90f4 d2bc 3c3e 6d3c
00000210: ca27 4fbd 8fca 063d 4797 aa3d 2b86 86bd
00000220: ce57 a0bd 787c 8bbd e961 e8bd e17d c33d
00000230: f100 753d 6b0f ad3c 7c48 84bc 3b3c 41bd
00000240: f395 b5bd fd2b c23d 1241 a33d 835c b1bd
00000250: f192 ec3d 30de 423d 708f d23d 42b7 ec3b
00000260: d00f a2bd 9c37 373d f40a c5bd 98c4 cabd
00000270: f317 bdbd b60e 1cbd b811 ae3d 9bb0 c03b
00000280: 16b5 e4bd fb10 0b3e 8040 26bd b9ca dabd
00000290: f1dd de3c 6997 2fbc b67e 123d 805d 493d
000002a0: 44d3 d3bd 482e c9bc ad90 64bc 5332 9dbb
000002b0: f4fb 193d 8443 433c 8fe0 203c 7d03 cfbd
000002c0: ee26 c93d 195b 75bd 846e 7fbd 6215 69bb
000002d0: cbd1 0d3e 6e8a 96bd 805c 023d 9d89 6d3d
000002e0: 59e1 493d 6c25 5cbc c45c bdbd fbb1 553d
000002f0: 7a59 7a3b 8a6e b73d dc95 ed3d 82f8 7a3d
00000300: 71b5 d03d 173d c73d 7ca4 14bc c793 5a3d
00000310: 9fcc c13d 20e9 b0bc efcf f63d 0415 c93a
00000320: 03d9 373b 71ae aa3c e73c 173e 267c a9bd
00000330: fa92 9fbd c225 ccbd 57df 133e 08a0 dbbd
00000340: 1229 973d f463 103e 7c43 c5bc cfb3 d4bd
00000350: e47c 0c3e 9997 92bd 942f 313d 396d 67bd
00000360: 77b0 8cbd 4395 01be 4dc2 aa3d 1cad 8f3d
00000370: 8665 743d 92f8 16be f498 9d3c 21cc 0f3e
00000380: c9ee 80bd fb4b e73d d950 be3d a66a e53d
00000390: 426e 9e3d 4736 83bd 9480 113e eb4a 163d
000003a0: 7b84 1abd 2440 163e 7e73 283e 890e 083d
000003b0: 834c 9ebc 9a4b 093d b25b ca3d 2411 a5bd
000003c0: 0556 eebd b7e0 a73d b9bd 013e 1273 5c3d
000003d0: 9690 133d 1491 223d c4b7 02be f74d e9bd
000003e0: a949 9cbd eec1 5cbd 4a3c e1bd cbea e93d
000003f0: 32a4 28bb bcab c1bd bdce c7bd bd2a 0c3c
-0.0003273535 0.0786351 -0.10743811 -0.123921245 -0.03119016 -0.08243261 0.059257682 -0.135399
-0.091076896 -0.1596242 -0.14427285 0.026627026 0.026492113 -0.052146602 -0.007532107 0.12348694
0.036407545 -0.11368847 0.075821444 -0.030877233 -0.10929936 -0.03251457 -0.024837574 -0.14675762
0.021782879 -0.031464517 0.10901274 -0.09996361 0.07768876 -0.03600331 -0.031959053 -0.149583
0.055133857 -0.09612728 0.074059516 0.044679143 -0.0090131145 0.06376732 -0.026030483 0.08610719
-0.09590488 -0.086366266 -0.15296267 0.026240885 -0.03651079 0.08206731 0.05483763 0.0019923858
-0.08031914 0.03165992 -0.052601725 0.111200646 0.10139996 -0.07675879 -0.03968786 -0.08383107
-0.14708343 -0.08641395 0.032164503 0.03587261 -0.0043122824 -0.048281945 0.082290694 0.0027339805
-0.085537225 0.099236354 -0.0760214 0.08333779 -0.018929683 0.045462422 -0.026026078 -0.13045818
-0.15242083 0.08819537 0.060766432 0.12761508 -0.027754106 0.04896679 -0.14502098 0.04528976
-0.025000632 0.014827519 -0.025712589 0.09500095 0.09056483 0.018915923 -0.030600414 0.031635545
-0.12812738 0.055861693 0.08559279 -0.06394736 -0.04736567 0.0884951 0.10773898 0.13201274
-0.04674426 -0.014535224 -0.022274889 0.0039751846 0.044355348 0.1157628 -0.0125997765 -0.02541774
-0.051310584 0.061169557 0.089795925 -0.10549546 -0.063149944 -0.13396643 -0.039372806 0.10191964
0.03682887 0.022336697 -0.055249613 0.019557666 0.08660774 0.0851723 -0.055680774 -0.0710443
0.096591644 -0.09580283 -0.030455794 -0.089511916 -0.12789854 -0.006093378 -0.12389198 -0.12565142
-0.035665907 -0.09113237 -0.025751382 0.01448017 -0.050575055 0.03290802 0.08329635 -0.06568559
-0.078292474 -0.0681085 -0.113468 0.09545494 0.05981535 0.021125516 -0.016147844 -0.04717658
-0.08866491 0.09481046 0.079713956 -0.08660223 0.11551464 0.047575176 0.10281265 0.0072239945
-0.07913172 0.044730768 -0.0962123 -0.099007785 -0.092330836 -0.038099967 0.08499473 0.005880428
-0.11167352 0.13580696 -0.040588856 -0.106831975 0.02720544 -0.010717251 0.035765372 0.049161434
-0.1034303 -0.024558201 -0.013950509 -0.004797259 0.037593797 0.011917952 0.009819164 -0.10108087
0.098218784 -0.05990133 -0.062361255 -0.0035565724 0.13849561 -0.07350622 0.031826496 0.057992566
0.049287174 -0.013436656 -0.09246209 0.05217169 0.0038200305 0.089566305 0.11600849 0.06127215
0.10190857 0.09728449 -0.009072419 0.053363588 0.094628565 -0.021595538 0.12051379 0.0015341346
0.0028052933 0.020835133 0.14769326 -0.082756326 -0.077917054 -0.09968139 0.14440666 -0.10723883
0.073808804 0.14100629 -0.02408003 -0.10385858 0.13719517 -0.07157821 0.043258265 -0.056500647
-0.068695955 -0.12654595 0.08337841 0.0701544 0.059667133 -0.1474326 0.019237973 0.14042713
-0.06295545 0.11293789 0.09292764 0.11201982 0.07735874 -0.06406837 0.14209205 0.03669254
-0.037724 0.14672905 0.16450307 0.033216987 -0.019323593 0.033519365 0.09880771 -0.0805991
-0.11637501 0.08197158 0.1267003 0.053820677 0.03602656 0.03968914 -0.12765414 -0.11391824
-0.07631237 -0.053895883 -0.10997827 0.11421736 -0.0025732634 -0.09456584 -0.09756229 0.0085551115

sequential/conv2d_4/Conv2D f4 [16, 3, 3, 16]
00000000: 0432 e1bd eb80 37bd 829d e3bd e832 e8bd
00000010: e6ad 35be 2fa0 9ebd 7563 0f3d e9e6 573d
00000020: fc2b 00bd 36f8 313d a606 51bc cb09 943d
00000030: 7b74 09bd 39b0 d1bd 2b03 823c 3537 5fbc
00000040: 47d9 193e 9104 34bd b83a e33d 75e3 34bd
00000050: 82b9 37be ee4e 98bd 7425 d23d 020b c23d
00000060: 910a d9bd 00db 303d 142c 7abc c185 8f3d
00000070: c7f0 c13c 0e25 f73b 6066 62bd c54b c33c
00000080: 9aa3 c5bd f50e 7f3d f54c b83c ba45 a93d
00000090: 9617 1abd 43b5 d73c cf60 18be 6532 86bd
000000a0: 358f 923d ac92 f7bd ad02 7bbd 5ce9 653d
000000b0: 9fc5 1bbe 705d 193c d3dc df3d 1d9f acbd
000000c0: bd3e 92bd 34c8 173d 4161 5abd f746 e93d
000000d0: ce81 ffbd 450e 023e 776f 853d e43b 17be
000000e0: 1b9a f1bd cbd3 f13d f1e7 b03d dc4a 6bbd
000000f0: cb3b 683d 171c b93d e4b1 1bbd 86c6 bb3c
00000100: cbb3 d6bd 5621 fdbd 5c81 b63d 3716 1a3d
00000110: 63cb bd3d 2a76 dd3d 2c99 2abd 55d9 f13d
00000120: 30e3 c7bd 5015 b7bc cc93 abbc 84f8 5d3d
00000130: e94a 1ebc d609 953d 6606 133e 83a8 ddbc
00000140: fa50 b7bd 043b 64bd 33bd 1fbe cd81 bc3d
00000150: d3c9 24be 50d1 51bd f22d c83d eeec 08be
00000160: d546 d33d 6986 c73d 38f4 44bc 54d8 0abd
00000170: 5443 c93d a7e8 39bd 881c 53bd 1450 01be
00000180: 7d6c c8bc 2833 003e b849 be3d a86c 0ebe
00000190: 439c cbbd 270e 0b3c addc cf3d 74c1 df3c
000001a0: ac84 a43d 0adc 3dbc 8abd dfbd 17a4 803d
000001b0: c760 a8bc 6b6c f8bd 6c56 6d3d 393b 06be
000001c0: 1bcd 83bd 3d84 023e 24c1 23bc ef0f d5bc
000001d0: a692 36bd aeb9 b2bd 592a 023c 1dbc c0bc
000001e0: 1947 c8bb 0823 17be 58b3 91bd 5848 603d
000001f0: 9d99 ad3d 3bb2 993d d845 c3bd 7d4e a5bd
00000200: 8659 53bd 1a36 ac3d f363 c33d 5d36 f23d
00000210: e55e 4f3d 58b6 cbbb 3de6 1c3d bf8e 153d
00000220: f7a8 5b3d a86c 97bd cff2 453c 99f0 ffbd
00000230: 21ac 2bbe 8b6d f6bb ab2b d33d f12b c8bc
00000240: a9a2 163e ee59 d4bd 946a a33d 7211 163e
00000250: 8b9d aabd 25f1 003e 11cb ebbc 247e eabd
00000260: bc70 febc 81c2 f2bd 1196 98bd 911e 15be
00000270: ff74 95bd ee80 893c caa0 313d 73f9 1fbd
00000280: 60a3 c53c d344 4d3d 16e9 1dbe b361 113d
00000290: a41d 3f3d 2861 03be 0fef 063c 31f2 9ebd
000002a0: cfe2 c3bc 08e2 b53d 31c2 9f3c 92a5 a9bc
000002b0: ddc7 51bd 4fea 9a3d 25dc d8bc 367e 5a3d
000002c0: 4b34 2dbd aba4 a0b9 763c 1abe 5dbf a73d
000002d0: e218 803d 6105 1d3d d843 0a3e 8c65 6fbd
000002e0: 56ab aa3d ab08 9ebd 3018 1c3c 1cc9 47bd
000002f0: 3031 c23d 2b99 c43d b8d0 c6bc 7171 613d
00000300: 709a 473c 344c 0fbd 5b36 bebc 91a2 ec3d
00000310: 4cf4 a33d 06d1 39bd de95 abbd 4d73 dbbd
00000320: b3ec a5bd 6414 0bbe fc26 02be 1329 bebc
00000330: 74a9 2a3c 1b2e df3d a92a 5ebd efd8 a8bc
00000340: f305 8e3d fde8 d13d 2a15 8c3d 3d7f adbd
00000350: 5976 bc3d 8731 18bd 9644 9cbc 6879 07be
00000360: 1ec7 b03d 604d c5bd 2f2d 9dbd 7f92 14bc
00000370: ff6b 4dbc ef84 17be 319e f13c 5f83 27bd
00000380: 45d7 06bd 7d25 0c3e b4b8 19be aade db3c
00000390: 22a9 86bd 087a 8a3d 009a 90bc 183f 133e
000003a0: 9bd0 663d ec18 0a3e 278e e0bd 2550 0bbd
000003b0: 5bd9 e5bc a69d d1bd 4a51 e8bb 5b3d aebd
000003c0: d70c ddbd a899 a13d 98c9 373d f14d 6ebb
000003d0: 7f75 57bd 8ae5 6dbd eed9 d0bb 7114 43bd
000003e0: aa3f ae3c 7fb9 02be bf90 ac3d 1885 85bc
000003f0: 369b 683c 82fc 4bbd de3d 3f3d 2cb3 1abd
-0.10995868 -0.04480068 -0.111140266 -0.113378346 -0.17742118 -0.07745396 0.03500696 0.052710447
-0.031291947 0.043449603 -0.012757933 0.0722843 -0.03355835 -0.1023869 0.015870651 -0.013624002
0.15024291 -0.043949667 0.11095184 -0.044162232 -0.1794186 -0.0743693 0.1026105 0.09474756
-0.105977185 0.043177605 -0.015269298 0.070079334 0.023674382 0.007542259 -0.055273414 0.02383984
-0.09650345 0.062270124 0.022497633 0.082652524 -0.03762015 0.02633155 -0.1488068 -0.06552581
0.07156221 -0.12088522 -0.06128185 0.056130752 -0.15212105 0.009360656 0.10930791 -0.08428786
-0.07140873 0.037056163 -0.053315405 0.113904886 -0.1247593 0.12700756 0.06515401 -0.1476894
-0.117969714 0.118079744 0.08637989 -0.05744444 0.056697648 0.09038561 -0.038011447 0.022921812
-0.104835115 -0.12359874 0.08911392 0.037618842 0.092673086 0.10813554 -0.041649982 0.11809031
-0.097601295 -0.02234903 -0.020944498 0.05419208 -0.009661415 0.07277267 0.1435791 -0.027057892
-0.08950992 -0.055720344 -0.15599518 0.09204445 -0.16092615 -0.051225007 0.097743884 -0.13371632
0.103162445 0.097424336 -0.012021117 -0.033897713 0.09827295 -0.04538789 -0.05154088 -0.12628204
-0.024465794 0.12519515 0.092914045 -0.13908637 -0.09941914 0.008487261 0.101495124 0.027313925
0.08033118 -0.011588106 -0.109248236 0.06281298 -0.02055396 -0.12130054 0.057943746 -0.13108529
-0.06435605 0.12745757 -0.009994779 -0.026008574 -0.04457345 -0.08726822 0.007944667 -0.0235272
-0.006111991 -0.14759457 -0.07114285 0.054756492 0.08476565 0.07504698 -0.09534806 -0.08071611
-0.051599048 0.084087566 0.09540548 0.11826775 0.050627608 -0.0062168054 0.03830551 0.036513086
0.053627934 -0.073937714 0.012081816 -0.12497062 -0.1676488 -0.0075203828 0.103110634 -0.024435015
0.14710487 -0.10368715 0.079793125 0.14655092 -0.0833083 0.1259199 -0.028783353 -0.11449841
-0.031059615 -0.11853505 -0.07450498 -0.14562441 -0.07297706 0.016785111 0.04336623 -0.039056253
0.024125755 0.050114464 -0.15420946 0.035493564 0.046659127 -0.12830031 0.008235707 -0.07761038
-0.023911862 0.08881003 0.019501777 -0.020708833 -0.051215995 0.07564222 -0.02647216 0.05334302
-0.0422862 -0.00030640265 -0.15062127 0.081907965 0.06254746 0.038335208 0.13502443 -0.058446452
0.08333461 -0.07716497 0.009527251 -0.048775777 0.09482038 0.09599527 -0.024269447 0.055039827
0.012182817 -0.034984782 -0.023219278 0.115544446 0.0800558 -0.045365356 -0.08378194 -0.10715351
-0.081017874 -0.13581997 -0.12710184 -0.023212945 0.010416377 0.10897466 -0.054239903 -0.020611254
0.069347285 0.10249517 0.06839974 -0.084715344 0.092022605 -0.037156608 -0.019075673 -0.13229907
0.086317286 -0.09633899 -0.07674634 -0.0090681305 -0.012537955 -0.14796804 0.029494377 -0.04089677
-0.03292014 0.13686176 -0.15011865 0.026839573 -0.06575228 0.06761557 -0.017651558 0.14379537
0.056351285 0.1348607 -0.109646134 -0.03401198 -0.028057745 -0.10235147 -0.0070897685 -0.085077964
-0.10793465 0.07890636 0.04486999 -0.0036362375 -0.052602287 -0.058080234 -0.0063736355 -0.047626916
0.021270592 -0.12766074 0.084260456 -0.016298816 0.014197161 -0.049801357 0.04668986 -0.037768528

sequential/conv2d_3/Conv2D f4 [16, 3, 3, 16]
00000000: 11f7 b33c a537 94bd 776c 11be a607 233e
00000010: 72f4 19bc 7ba6 bc3d 0a29 2ebd 157a eebd
00000020: 64de 9fbb 061f ffbd ba60 7a3c 373e 82bd
00000030: 21fb 073d 1fe6 103d 2a96 a8bb d018 1d3d
00000040: f79c 263d 56f5 c3bd f34f b9bb 6195 f2bd
00000050: 4efa 86bc 67df 733d 2edd 013e 0fd7 5fbc
00000060: c381 203d 7176 093e abbe 09be 4331 d83d
00000070: 873d 92bc 165a 93bd 0aeb 0ebe 2830 ba3d
00000080: 8be0 f6bd d61b a13d 99c7 a7bd 926d a5bb
00000090: a962 f83d 5998 67bb d03a 53bd 008a babd
000000a0: b0bb 13bb 13f1 fabd 440f c5bd 2da1 d03d
000000b0: 054a c8bd 5214 233e f166 403c b831 8dbd
000000c0: 18e0 ebbd 500c dc3d 33e5 cb3b 2190 01be
000000d0: 8b60 41bd 311d f73d 8f1c c43c 924c 01bd
000000e0: 1606 0ebe b3ae ea3d 3c5c 9ebd 0490 45bc
000000f0: 58f6 cabd 0582 123e 90b4 933d 004c 7e3d
00000100: d7fa 0bbd b453 1c3e 8558 173e d104 353d
00000110: 94c6 1abe 545c 82bd 6ca1 43bd 80da e2bd
00000120: 9dd1 e83c 326b 03be 7b5a d63d ddbc 7c3b
00000130: 8edf c7bd cc26 7ebd a261 c13d 7baa e0bc
00000140: b275 fabd 31f9 673b 6930 65bd 872c b2bd
00000150: 5b82 c33c fe05 a0bc 9351 2abe 124d 4d3b
00000160: 89b6 d33d 3134 76bd 6517 073d 6e00 933d
00000170: 618b 8ebd 0b60 06be f0ff 283d 1958 8c3d
00000180: 04dc a53c a223 e33d a800 523d 37ed 543e
00000190: 2a78 44bc 28b6 06be cf71 cbbd 2a1d 143e
000001a0: d9ca be3d 5e18 bf3d 7c93 783c 9094 6cbd
000001b0: 8867 f8bd 295e a13d 88d0 5c3d 238c 5d3c
000001c0: 39f3 75bd e039 263e 5f97 273e 1393 9c3c
000001d0: d207 26be 384d 0bbe 4bc2 b23d 6051 e53d
000001e0: 4a41 9abd 2f48 cd3d 3b46 81bc 7be7 863d
000001f0: 0cd5 a73d f63a bbbc 6db1 e7bd 6eaf d2bd
00000200: d1e2 5abd 2097 003e 1b34 163e 9b00 fcbd
00000210: 9f5d a4bd fca0 983c e05c b6bd b0ed 88bd
00000220: 1133 e1bd b0b7 f1bd d027 ac3d 2945 29bd
00000230: e1c3 dabd 0638 19bd 71e8 3e3d 5513 ebbd
00000240: 920b 01be 72e0 a43b df3e 953c fcb1 0cbe
00000250: e64e 0d3d 0d38 023c 33b2 da3d 3fe8 923c
00000260: f891 97bd 411f d43d 92e2 0f3d 4005 ab3d
00000270: bbf3 c83d a15b 523c e4b1 cbbd 8ba1 743d
00000280: 6ae2 c8bd 6b4d efbd 4846 cc3c 1b91 9f3d
00000290: 3bff 00be c40a 2ebd 409f 723d 0c84 263b
000002a0: bb8b 2bbe 4415 f2bd d282 623d 4820 43bd
000002b0: a7b0 a23b d852 c63d 6a1c 07be 30d4 06be
000002c0: d5f2 4cbb ece3 66bd 3481 623d 8409 00be
000002d0: 1aa5 58be eac0 de3d 6810 ca3d 866d 873d
000002e0: 09b5 3d3d b620 ac3d c9e0 61ba 23f0 e23c
000002f0: d1ab 833d f5aa 98bd 939a 683d b85b 70bd
00000300: bf0e 34bc fc16 23bd d2e8 2f3d 817f a3bd
00000310: 40da e43d 8744 e5bd 5094 f63d c3e4 d0bc
00000320: 6ae5 873d d64f f1bd d04d c63c 6711 86bd
00000330: 1673 a5bc a390 803d 7dc5 ed3d bc40 ea3d
00000340: 5ca2 5c3c 41e9 64bd e9a1 08be 68e5 c33d
00000350: 2dfe c5bd 5e1b 95bd 0251 1a3d 4b8a bbbb
00000360: 3273 cc3d 0a02 173d 47d4 893d daed 573b
00000370: d445 333d 8c37 993b 16dc 6e3c 90a7 febc
00000380: 6bfa 00bd e51e a53c ae11 1cbe 46c9 cbbb
00000390: f794 acbd 5663 4bbc 271e 01be ca91 08be
000003a0: 8600 ddbd 5a78 38bd c647 81ba 33a6 a33d
000003b0: d19a a63d 775f 22be 95d4 edbd e076 00bb
000003c0: 21bd debd 8923 1abd ce14 563d 55ec 32bc
000003d0: d9ce 73bd a959 26bc 2395 883d 46cd edbb
000003e0: 85d1 3b3d b142 0bbd 0059 053e 7a14 e23d
000003f0: cf46 3e3d cc67 e3bd 21b1 b7bd 05da c0bd
0.021968396 -0.07237176 -0.14201532 0.15920886 -0.009396659 0.09211441 -0.042519607 -0.11644379
-0.004878806 -0.12457089 0.0152818505 -0.06359523 0.03319848 0.03537571 -0.005144854 0.03835374
0.040677037 -0.095682785 -0.0056552826 -0.11844898 -0.016476776 0.059539225 0.1268203 -0.013662114
0.03918625 0.13424088 -0.1345164 0.10556271 -0.017851604 -0.07194917 -0.13956848 0.09091216
-0.12054547 0.078666374 -0.08192367 -0.005048462 0.12128193 -0.003533861 -0.05156976 -0.09108353
-0.002254229 -0.122530125 -0.09622052 0.10186992 -0.09779743 0.1592572 0.011743293 -0.06894249
-0.11517352 0.10744536 0.006222391 -0.12652637 -0.04721121 0.12066115 0.023939399 -0.031567164
-0.13869509 0.114591025 -0.07732436 -0.012058262 -0.099102676 0.14307411 0.07212174 0.062084198
-0.034174766 0.15266305 0.14779861 0.044194046 -0.15114814 -0.063652664 -0.047761366 -0.11076832
0.028420264 -0.1283386 0.104664765 0.003856472 -0.097594365 -0.06204872 0.0944245 -0.027425041
-0.1222948 0.0035396332 -0.05595437 -0.08699899 0.02386587 -0.019534107 -0.1663268 0.0031326455
0.1033755 -0.060108367 0.032981295 0.07177816 -0.06960178 -0.13122575 0.041259706 0.06852741
0.020246513 0.11090781 0.051270157 0.20793615 -0.01199154 -0.13155425 -0.09933817 0.1446425
0.09316034 0.093308195 0.015171882 -0.057758868 -0.12129122 0.07879288 0.05390981 0.013522181
-0.06004641 0.16233015 0.16366337 0.0191131 -0.1621392 -0.13603675 0.08728465 0.11197162
-0.07531984 0.100235336 -0.015780559 0.0658712 0.08194932 -0.022855263 -0.11313138 -0.10287367
-0.053438965 0.1255765 0.14668314 -0.12304803 -0.08025669 0.01863145 -0.08904433 -0.0668596
-0.10996068 -0.11802614 0.08406031 -0.041325722 -0.10681892 -0.037406944 0.046608392 -0.11478297
-0.1260207 0.005031639 0.018218456 -0.1373977 0.03449907 0.007947934 0.1067852 0.01793301
-0.07400888 0.10357524 0.035128184 0.08350611 0.09812113 0.012839229 -0.09946039 0.059724372
-0.0980881 -0.11684688 0.024935856 0.077913485 -0.12597363 -0.042490736 0.059233904 0.0025408296
-0.16752522 -0.11820462 0.05530054 -0.047638208 0.0049649063 0.0968377 -0.13194433 -0.1316688
-0.003127267 -0.056369707 0.055299 -0.1250363 -0.21156731 0.10876639 0.098664105 0.06612687
0.046315227 0.084046766 -0.00086165644 0.027702397 0.06429256 -0.074544825 0.05678804 -0.05868122
-0.010989844 -0.03981684 0.042946644 -0.07983304 0.111744404 -0.11194711 0.12040007 -0.025499707
0.06635554 -0.117828056 0.024207026 -0.06546288 -0.020196479 0.06277587 0.116099335 0.11438128
0.013466444 -0.05588651 -0.13343014 0.0956524 -0.09667621 -0.072806105 0.03767491 -0.005723273
0.09982909 0.03686718 0.06729942 0.0032948167 0.043767765 0.004675811 0.01457884 -0.03108576
-0.031488817 0.020156333 -0.1524112 -0.006219062 -0.0842685 -0.01241382 -0.12609158 -0.13336864
-0.107911155 -0.04503665 -0.0009863309 0.07990684 0.08134998 -0.1585673 -0.116128124 -0.0019602105
-0.10875917 -0.037631545 0.052265935 -0.010920604 -0.059523437 -0.010153213 0.066690706 -0.0072571365
0.04585411 -0.03399915 0.13022232 0.11039062 0.046454247 -0.11103782 -0.089693315 -0.09416584

sequential/conv2d_2/Conv2D f4 [16, 3, 3, 32]
00000000: 1e12 16bd 0db2 473c be28 4f3d 591e fd3c
00000010: 1fb8 413d 99ba 363d 4074 ed3d d5cf 1a3d
00000020: 3fce a8bd e352 dc3d 936e 573d 15c1 9fbc
00000030: e5ef 61bb b8ec 063d 74c4 c7bd a894 313d
00000040: 761f 173d a73e 12bc d09b d9bd 75f4 b13d
00000050: 4a4d 9d3d 2d1f 2d3c 43f6 93bc 121d 573d
00000060: b3b8 13be 9756 b33c 2dc6 d63d 1b98 ab3d
00000070: c050 dcbc 7a39 85bb 4fb6 873d 1f79 e5bd
00000080: 71f1 29bd 5835 bdbd 0835 813d dfdc 4f3d
00000090: 9669 74bd d317 ca3d 5e31 06bd 326c 91bd
000000a0: f738 923d 818b d2bd eecd 5dbd e457 ba3d
000000b0: c0d5 aa3c aa23 babc 9efd 52bd a751 30bd
000000c0: 93c9 a43c bd81 f03d 0681 55bc c4c2 64bd
000000d0: 510f 8d3d 4e6c 20bd 859a 183d 5828 afbd
000000e0: d00b 1ebd 0d69 dd3d ed16 b13b 3ac0 0ebe
000000f0: 1e41 c33d 9772 6fbc 3770 48bd 2fff 3a37
00000100: 2f87 7cbb 7ba7 713c ff13 9d3d ba11 653d
00000110: 9df9 adbd a3ca 45bd 5c85 4cbd d00f dc3d
00000120: e381 17bd fce5 9bbd 995c dd3c 597a 8f3d
00000130: 4620 3c3a dd50 113c 6fde 86bd 32b9 b3bd
00000140: 32e8 6abd 8fb8 be3d 10ac 0cbd 68b6 c9bc
00000150: 5941 10bd 9fb6 b1bd b216 583d 3f8c 1abc
00000160: 70e1 353d 53a2 493c 4969 a2bd aa93 e0bc
00000170: 6651 c7bd 2f00 b53d db48 123e e32e b6bc
00000180: 2c25 22bd 9721 cbbb 8234 b2bd b7ca 92bd
00000190: 289c a63c 6342 19bd 41f1 da3d 2aee 24bd
000001a0: 4e7a a73d ab79 903c 7742 4bbd 7e1d 4e3d
000001b0: 2165 0abd 8ca8 a6bd c827 f3bc ee97 be3c
000001c0: 91de 873d c57d 983d 835e 6dbd 1f23 023e
000001d0: e332 78bc 3d7c febc 287a 18bc ac54 c1bd
000001e0: bfc3 c2bd caa4 35bd 2d61 ac3d 97b5 9a3c
000001f0: dc52 e0bd 38e8 32bd 9d64 7d3d 997b c4bb
00000200: b655 a0bd 2456 453d 10d8 72bd c04b c9bd
00000210: 66bb c5bd 6bbd ab3d 2763 c53d 6687 9bbd
00000220: 6c1a 933d b47a 813d cae4 ad3d 531c ad3d
00000230: 1a85 b7bd f746 6c3d a675 2abd ba41 833c
00000240: 6a6b db3d 0ecc 62bc a645 e2b9 9322 7a3d
00000250: ea88 5dbd 4d4b 00be 9c62 663c 5443 a0bd
00000260: 43f5 cebc 7005 0bbd 3662 09bd 50ec 953c
00000270: b1bf e13d 26ef 36bd 3de6 f7bc f252 ab3d
00000280: 3f05 b4bc 6064 2e3c 950d f7bc 20de c6bd
00000290: 2011 903d 81d6 cebd fb09 bd3c 7b22 7dbd
000002a0: bdd6 91bd 0e58 b5bd 17f7 c03c 0a99 32bc
000002b0: 708e c0bd fe4c 8d3d 1780 65bd ac05 be3d
000002c0: 7348 8bbd 124a 9ebd bf6b 3c3c c1fd 6cbd
000002d0: 5ebb db3d ad3c 99bd a76e 283d b880 5dbc
000002e0: 53c7 0fbe f7f8 fe3c e9bb 913d 9456 35b9
000002f0: c2e9 0c3d 60dd a2bd 2806 9bbd ff56 86bc
00000300: eac6 703c 061b a6bd e35b a7bc 557b 57bd
00000310: 67b0 53bc 912c 353d 1b67 cb3c c897 cd3d
00000320: b646 21bc 512a 9d3d 103a c9bc 6bd4 b83d
00000330: 0b55 783c 468c b0bd 0621 a5bd b606 e73c
00000340: 30b3 7b3c 93cf 84bc ae7f 3abd 7871 183e
00000350: 5fbb 08bd b0d5 15be b963 aa3d 71f8 afbd
00000360: 4169 d63d f7ad 96bd 6291 e03c c405 73bd
00000370: e5c1 193d 18d2 eebc 8162 6e3d f49b e5bc
00000380: c8ab dcbd cce5 8aba f67d 373d ed77 9abd
00000390: a8da b93c e1e2 913d 2acb 213d 5960 70bd
000003a0: 2a10 0dbd 6fbc 673d da56 e53d 4192 7ebd
000003b0: 60d6 e73d c38b a2bd f53d acbd 4e2d 23bb
000003c0: b5c3 773c c660 b73d 026c 163d 7b68 8a3c
000003d0: 5d50 9d3c 8bbc a9bc 7cfd d6bc 251e 223d
000003e0: f31b 803d ddb5 2dbc 1e5b 993c ba22 5d3d
000003f0: 29bf dabd d5fe 8dbd ab70 1a3d 1564 bc3d
-0.03663837 0.012188447 0.050575964 0.03089826 0.047294732 0.044611547 0.115944386 0.03779586
-0.08242463 0.10757997 0.052595686 -0.019501248 -0.0034475264 0.032940596 -0.09754267 0.04335466
0.036895238 -0.00892607 -0.10625422 0.086892046 0.07680757 0.010566515 -0.018061763 0.052517958
-0.14425926 0.021891875 0.10487018 0.08378621 -0.026893973 -0.0040656896 0.066265695 -0.11204743
-0.041490022 -0.0923869 0.06308943 0.05074775 -0.059671007 0.09867825 -0.032761924 -0.07100715
0.071397714 -0.102805145 -0.054151468 0.09098795 0.020853877 -0.022722084 -0.0515114 -0.04304662
0.02011565 0.117434956 -0.01303125 -0.055849805 0.06887687 -0.039165787 0.037256736 -0.08552617
-0.038585484 0.108110525 0.0054043443 -0.13940516 0.095339045 -0.014614723 -0.04893514 1.11458785e-05
-0.0038532724 0.014749403 0.076698296 0.05592511 -0.084948756 -0.048288953 -0.04993187 0.107452035
-0.036989104 -0.076122254 0.027021693 0.07005758 0.000717644 0.008869377 -0.065853946 -0.087755576
-0.057350345 0.093125455 -0.03434378 -0.02462311 -0.03521857 -0.0867741 0.05275602 -0.009432851
0.044404447 0.0123067675 -0.07930238 -0.027414162 -0.097323224 0.08837926 0.14285605 -0.022239154
-0.03958623 -0.0061990726 -0.08701421 -0.07167571 0.020338133 -0.037416827 0.10690547 -0.040266193
0.08177625 0.01763614 -0.049623933 0.050321095 -0.03378785 -0.081376165 -0.029682055 0.023265805
0.06634248 0.07445864 -0.05795146 0.1270871 -0.015148851 -0.0310651 -0.009306468 -0.09439978
-0.09509992 -0.04434661 0.08416972 0.018885417 -0.10953304 -0.043678492 0.06186353 -0.0059961793
-0.07828848 0.048177853 -0.059288085 -0.09828901 -0.09654884 0.08385738 0.096380524 -0.075941846
0.07182774 0.06322232 0.08490904 0.08452668 -0.08960934 0.057684865 -0.041616105 0.016022552
0.10713847 -0.013842596 -0.0004315797 0.06106813 -0.05408565 -0.12528725 0.014061596 -0.07825342
-0.025263434 -0.033940732 -0.033540927 0.01830116 0.1102289 -0.044661663 -0.030261153 0.0836543
-0.021975158 0.010644048 -0.030157844 -0.09710336 0.07034516 -0.10099507 0.023076048 -0.06180046
-0.07121036 -0.08854686 0.023555322 -0.010900745 -0.09402168 0.06899451 -0.05603036 0.092784256
-0.06800928 -0.077289715 0.011500298 -0.057859186 0.10729097 -0.07482276 0.04112115 -0.0135194585
-0.1404088 0.031124575 0.07115919 -0.00017293758 0.034402616 -0.0795238 -0.075695336 -0.016398905
0.014695862 -0.08110623 -0.020429557 -0.052607853 -0.012920476 0.044231955 0.024829438 0.100387156
-0.009843519 0.07674087 -0.02456382 0.090248905 0.015156995 -0.08620505 -0.08062939 0.028201442
0.015362546 -0.01621226 -0.04553192 0.14887035 -0.033381816 -0.14632297 0.08319802 -0.08592308
0.10469294 -0.073574 0.027413074 -0.05933167 0.037538428 -0.029152915 0.05819941 -0.028028466
-0.10774952 -0.0010597049 0.04479786 -0.07542405 0.022687271 0.07123352 0.039500393 -0.058685634
-0.034439243 0.05657619 0.11198206 -0.062151197 0.11320186 -0.07936814 -0.08410255 -0.002489883
0.015122344 0.08954005 0.036724098 0.016895523 0.01920336 -0.020719787 -0.026243918 0.03957953
0.06255331 -0.010602442 0.018720206 0.053988196 -0.10680992 -0.06933371 0.037705105 0.09198777

sequential/conv2d_1/Conv2D f4 [32, 3, 3, 32]
00000000: 9d7c 923d c7ee c03d 0fe8 4b3d efdf a73d
00000010: 2d0c a33d 4132 703d a00c fd3d c571 ffbc
00000020: e2b3 81bd 9ad8 be3d b46f a7bd 11e1 b4bd
00000030: fa2f 96bd 14cb 0abd c28f ba3c a4d2 0d3e
00000040: 68b4 5abd 2378 08bd 0ae4 b1bd c9aa 133d
00000050: d0e6 7ebd 4423 a5bd 7471 c53d 3073 b6bd
00000060: dc09 9a3c ef32 033c e2a7 f43b 1827 143d
00000070: b620 98bd cbb5 26bd 9d2a c6bc cadb 2e3d
00000080: 5596 613d 6881 c93d 112c a83a 14db b7bd
00000090: 307d 4b3b 6878 953d 7e86 3abd 54f0 8c3d
000000a0: 956c 44bd 1751 69bc 1aa7 a33d 2c09 99bc
000000b0: 552a 303d 35dc 623c adcc 913d 75aa 75bd
000000c0: 2476 21be 54f4 89bd 0268 a13c 8973 5ebd
000000d0: 259c cb3c 65fb 893d 30c2 dbbd 2fd3 4f3d
000000e0: 933f 443d c299 913c 83da 9abd ae7d 05bd
000000f0: 7e8a c93d 6109 1d3d 14cb 25bd 902b 2cbd
00000100: a291 af3d e695 66bd bc51 0fbd 7cd4 d5bd
00000110: e5f1 b03c 516a 9c3d 3533 aebc f152 8fbd
00000120: 612d d438 ec23 bfbd 3bd9 c63c 3744 3bbc
00000130: b266 a2bd cda7 983c 2f58 acbd d5b2 d43d
00000140: 9a47 9a3c 0943 743b ff7c 5f3c 8e1e 5fbd
00000150: f639 35bd 8c0a 8e3c 9696 c7bd bf23 eebd
00000160: 0b14 e0bb 1337 a33d 96fc fa3c 419d e9bb
00000170: d743 e2bc 09fb 42bd 97d4 e4bc a5a2 b7bc
00000180: 75e0 c3bc 97b4 0cbd 5283 03be a41a 7f3d
00000190: a9cb c3bd 441e 7b3d e15e 353d d5a3 923d
000001a0: 3bf0 d6bd 3e03 bdbd e940 143d 9e39 acbc
000001b0: 8293 74bc 4be2 ae3d ee6c 283d 3841 e13d
000001c0: 5f34 de3d 064e c13c eb0f 22bd 5c82 eb3c
000001d0: 1f3c 7f3d 19f1 003d eca2 523d ea98 913d
000001e0: e3da 093d fe24 cc3c 50d4 813d a2b2 da3d
000001f0: 625d 9bbd 7326 783d 6b12 ccbd 5e41 0ebd
00000200: 0138 9c3d e915 3a3c 45ca 123d c33c 10bd
00000210: 30e8 d0bd 5bbf 09bd ba34 9cbd 23bd babd
00000220: 9ac6 a23c b758 bfbb f500 b43d 6fc9 a6bd
00000230: ffd6 c7bb fe82 a1bd 23d6 b03d 9149 4f3c
00000240: a80d b8ba 3e1b 19bc a84a 64bc 8bef 8d3d
00000250: 2e5e bcbb 0b44 68bd 6937 193d 5444 dcbc
00000260: 0c40 093d 82c1 77bc b935 e0bd df14 203d
00000270: 7e7c c5bd 0983 293d 64bb 25bd f597 b83c
00000280: d6f3 6fbd f9a4 753c d358 fc3c 0f6a 53bd
00000290: d4d9 0dbb 2170 8bbd d6d2 b43b 3053 d13d
000002a0: d4a9 a7bc b924 e73c 8cea 94bb f7c4 9e3d
000002b0: e454 7fbd f6cf 94bb e7a0 20bc 3a12 c6bd
000002c0: 0b09 89bd 5e01 873d 90ac aa3d 44f3 9fbd
000002d0: 48e9 813d 1bab 8f3d 3fd4 c1bd 3c0a 933b
000002e0: 2529 1abd 6451 9f3d b181 3c3c f0bd 8ebc
000002f0: a5ff afbd 13ab cb3c 280f 97bd 9b4e 88bc
00000300: 58b7 4bbd e0dd bf3b 90da 223b 91b2 743d
00000310: 553e ef3c 291f ca3c cb79 57bd 9767 59bd
00000320: 68e0 dcbc 2b75 103d 78bd 893c 8b07 aebd
00000330: ca76 8dbd 3e49 e73b bd4e 8dbc edf8 4b3d
00000340: 707c d93d 29e8 ccbd bef0 9dbd 3bf8 c83d
00000350: 8650 c0bc 1505 f9bc 8fdb 36bd 945d 0fbd
00000360: 7f35 2dbd 25fe 633d 229f 83bc c8fc d03d
00000370: 7514 2c3d 5628 7a3c 2d93 53bd 28bf 87bd
00000380: 524e aa3a f9b5 a2bd 6d34 d4bd 866d 163d
00000390: dc70 a1bd 2f0b eaba 7b2d 903d 9feb e13c
000003a0: 7171 ffbb cc3b 79bd aa5c f5bc 8677 83bd
000003b0: 87d3 0cbd fe5f 7f3d 2197 303d e0cd 99bc
000003c0: 471f 41bd 0a8a 973c 0818 3c3d 77f4 bc3c
000003d0: 655b bfbd 2c64 3cbd 9ef8 573d a4b7 ae3c
000003e0: af7b 64bd 4da3 d53c fdef 6ebd cbd1 053d
000003f0: a836 f03c e06c 3abd d55c a4bc a130 f7bc
0.07152674 0.09420543 0.049781855 0.08197009 0.07961307 0.058641676 0.12355924 -0.03118218
-0.06333138 0.09318657 -0.081756026 -0.088319905 -0.073333696 -0.033885077 0.022773627 0.13849884
-0.053394705 -0.033317696 -0.08686073 0.036051545 -0.06223184 -0.08063367 0.0964078 -0.08908689
0.01880353 0.008007749 0.0074663023 0.036170095 -0.07428114 -0.040700715 -0.024190241 0.042690076
0.05507501 0.098391354 0.0012830516 -0.08977333 0.003104996 0.07298356 -0.045538418 0.068817765
-0.047955114 -0.014240525 0.079908565 -0.018681131 0.04300912 0.013846447 0.07119117 -0.059977014
-0.15767723 -0.06736055 0.019702915 -0.0543094 0.024854729 0.06737403 -0.10730398 0.05073851
0.04791219 0.017773513 -0.07561209 -0.03259056 0.098408684 0.038339023 -0.040476874 -0.042033732
0.08572699 -0.056295298 -0.034990057 -0.10440919 0.02159972 0.07637466 -0.021264652 -0.06998242
0.000101174 -0.093330234 0.024273505 -0.011429838 -0.07929744 0.018634701 -0.08415257 0.10385672
0.01883297 0.0037271401 0.013640641 -0.0544725 -0.04424473 0.017339014 -0.09745519 -0.11627912
-0.006838327 0.07969489 0.03063802 -0.007129342 -0.02762024 -0.047602687 -0.027933402 -0.022416422
-0.02391074 -0.03435191 -0.12843063 0.062281266 -0.095603295 0.06130816 0.044279937 0.07160155
-0.10495039 -0.09229134 0.036194716 -0.021023568 -0.014927747 0.08539256 0.04111951 0.109987676
0.10849833 0.023596775 -0.03956596 0.028748684 0.062313195 0.03147993 0.051424906 0.07109244
0.033656012 0.024919983 0.063393235 0.10678603 -0.07586171 0.060583543 -0.099644504 -0.034730308
0.076278694 0.011357763 0.03583743 -0.035214197 -0.10200536 -0.033629756 -0.07627244 -0.09118106
0.019870091 -0.005839433 0.08789245 -0.08143889 -0.0060986276 -0.07886313 0.08634593 0.012651817
-0.0014042156 -0.009344874 -0.013933815 0.06930455 -0.005748532 -0.056705516 0.03740636 -0.02688805
0.033508345 -0.015121819 -0.10947747 0.039082404 -0.096428856 0.04138473 -0.040461913 0.022533396
-0.05858215 0.014992946 0.030804073 -0.051614817 -0.0021644728 -0.06808496 0.0055182977 0.10220945
-0.020466723 0.028215753 -0.0045445617 0.07752412 -0.062336817 -0.0045413924 -0.009803987 -0.09671445
-0.06691178 0.06592058 0.08333695 -0.07810071 0.06343323 0.07015058 -0.09464311 0.004487304
-0.037636895 0.07779196 0.01150553 -0.017424554 -0.08593682 0.024861848 -0.07375938 -0.016639045
-0.049735397 0.005855307 0.0024849512 0.059740607 0.029204527 0.024673061 -0.052606385 -0.053077307
-0.026962474 0.03526799 0.016813979 -0.084975325 -0.06907423 0.0070582917 -0.01724946 0.04979794
0.10619438 -0.100052185 -0.077119336 0.09812971 -0.023475897 -0.030397931 -0.04464298 -0.035001352
-0.042287346 0.055662293 -0.016067091 0.10204464 0.042011697 0.015268406 -0.05165403 -0.06628257
0.0012993312 -0.07944865 -0.10361562 0.036725543 -0.07882854 -0.0017856116 0.07039925 0.027578173
-0.0077955057 -0.060848042 -0.029951412 -0.06419282 -0.034381416 0.062347405 0.043112878 -0.018774927
-0.04714897 0.01849844 0.045921355 0.023065789 -0.09343604 -0.04599397 0.052727334 0.021327801
-0.055782016 0.026078844 -0.05833434 0.032670777 0.029322937 -0.045513988 -0.020063797 -0.030174555

sequential/conv2d/Conv2D f4 [32, 3, 3, 3]
00000000: ba86 933d db98 803d 090e 6b3c e29c 6f3d
00000010: e20a 13be 5d99 8a3d 6866 bfbd eebf 5ebd
00000020: 308b e1bd 6369 acbd 0304 eabd 3835 913d
00000030: 9c0d 403d f4a9 7abd 9cee cabd 7e87 6fbd
00000040: 234d db3d e80b 20bd 23ce d93d 0e62 2fbd
00000050: d388 35bc c36f 13be 142e a93c 681c efbb
00000060: 8113 ba3d 70bb 85bc b82d 373d 9107 d63d
00000070: 3f80 79bd 4192 8bbd 21fd d7bd 051b 9a39
00000080: 29a9 3abc 820b 7e3c 277e 17be 9a98 14be
00000090: 16a0 1bbe 0ff3 623c a399 eabd fd05 d43d
000000a0: d312 13be 99c7 0dbc 7f17 e1bd 2840 043d
000000b0: c265 7abd 63eb 23bc bb85 bf3d 2448 b43d
000000c0: 5b0d 04be 4f11 c8bc d3c5 04be 3b9c 26bd
000000d0: 63bd bebb 60ee 93bd fbfc 83bd 1e3e 7b3c
000000e0: e0f4 f33d b6dc e33d 1949 7abd 0342 7f3d
000000f0: c3ac 0abd f731 833c de2a e5bd 523d 98bd
00000100: 1bf0 ff3d 0acb 8f3d fb14 7dbd 2f82 f13d
00000110: 6408 dabc ddfc 93bd 8543 fb3c 271b 69bd
00000120: b748 8c3d 9842 f5bd ad3d 9e3d eba5 c63d
00000130: 58a6 0fbe 47c6 c4bd 43a5 9ebd 43a2 bd3d
00000140: 158c 10bd e5bb e93c f5f0 d6bd c738 433c
00000150: 165d df3d 35af 583d 6176 a7bd 7321 ebbc
00000160: 9877 22bd 78f5 ea3c b5b3 d0bd 589c 7f3d
00000170: 5795 5ebd 8152 d0bd 56dd ac3d 9642 56bd
00000180: 8f6d b8bd 8882 bebd 72d0 c1bd c65a f13d
00000190: 880b 18be 4a7f 28bd ddd7 febd 5b3b 78bd
000001a0: 8ac3 febd 7bf5 493d 045f 11be f4f7 5e3d
000001b0: 6902 a3bc 98d6 963c ae83 29be dc6c b8bc
000001c0: d54e 8dbd 0e6e a73d 5628 633d f518 29be
000001d0: 98b0 d53c c965 d53d f0be 45bd b8ac 24be
000001e0: f3b1 8cbc bcdd 35bd 56a6 153c 40cc 8abd
000001f0: 4a58 043c 62ef 313c faaa 913d b373 9a3d
00000200: 5a35 b33d 18cf 5ebd e2b5 f33c cf96 05bd
00000210: 9c01 f2bd f37d 8a3d 48ce c23d c8a6 013c
00000220: 6e3e b5bd 5915 923d b779 783d 8655 22bc
00000230: 09c5 923d 0258 373d 9556 9f3d 7b0a 203c
00000240: 36ff d1bd 519d 4dbd 6eed 09bd 6c68 613d
00000250: d616 9fbd 1639 ca3d e203 ec3d c81d 26bd
00000260: 7379 da3d de1a 023d 6625 163c 71c9 90bd
00000270: 9411 b4bd 4b1b 9f3c 26ce c1bd 7650 fe3d
00000280: a854 b9bd dff0 d4bd ff98 c1bd 6f34 b8bd
00000290: 5670 f9bd 3d19 b6bd 4d27 32be 9b63 97bd
000002a0: d8b9 06be 294b 59bc 1bd0 81bd 74d6 adbd
000002b0: 739b 67bd 898d 23be dbb5 d2bc 70fa 12be
000002c0: 230c d5bd 74df d53d 2020 5dbd 5435 eabd
000002d0: 4135 cb3c 4378 b93d a25a 973d 0e91 bfbd
000002e0: 5b6f 4fbd 30b5 af3d 87dd 113d cdd9 03bd
000002f0: bfbe 31bd 433b 07be 236b dbbd 0506 a83c
00000300: 66df 433d 2dbf 01be 8096 b03d 246b 02be
00000310: 5a99 9a3d 0d81 d2bd ad81 3a3d 3b67 35bd
00000320: bba8 98bd 1b9f de3d 27a2 c83d 8926 4e3b
00000330: 3050 54bc 0f18 003d 94ca ce3d aefe eebd
00000340: 5d70 02be 3f1a 02be 6454 d13d 828f f6bc
00000350: 7270 cfbd bc6c 0abe 3df3 c6bd ce2e 5ebd
00000360: b400 2abd b89c e9bc 4a37 c7bd c621 e53d
00000370: aef3 ebbd 6bfa 863d 000d f8bd 3570 b53d
00000380: 4050 f7bd 5cfd c73c f7bd ec3c 60e4 b6bd
00000390: 8411 c73c bde2 1c3d 5955 79bd ffd0 83bd
000003a0: 97c5 59bd b1aa 803d 52b7 eb3d 2a1f e33c
000003b0: a7d9 63bd 5a7e f03d da1d c7bc 61ba e6bd
000003c0: e07d 25bc 3700 cc39 3748 4d3d 70e8 a3bb
000003d0: 67da f1bd 3c99 51bd 758d 07be 299d 443d
000003e0: c872 d8bd f289 113d 8309 803d 54fc ab3b
000003f0: 3691 b93d 5a5e c3bd 391e e3bd 7d93 ae3d
0.072034314 0.06279155 0.014346608 0.058499224 -0.1435962 0.06767533 -0.09345704 -0.054382257
-0.11012876 -0.084185384 -0.114265464 0.07090229 0.04688798 -0.061197236 -0.099087924 -0.058478825
0.10708072 -0.039073855 0.106350206 -0.04281812 -0.011079985 -0.14398102 0.020651855 -0.0072970875
0.09085751 -0.016324729 0.044721335 0.10450662 -0.06091332 -0.06815005 -0.105463274 0.000293933
-0.01139287 0.015505673 -0.14794217 -0.14511338 -0.15197787 0.013851895 -0.11455085 0.10352705
-0.1436265 -0.008653545 -0.1099081 0.032287747 -0.0611322 -0.010004851 0.09351679 0.08802822
-0.1289572 -0.024422316 -0.12966089 -0.040676337 -0.0058209165 -0.07223201 -0.064447366 0.015334634
0.119119406 0.11126082 -0.061104868 0.062318813 -0.033856165 0.016015036 -0.11189817 -0.07433571
0.12496968 0.070211485 -0.061787587 0.11792409 -0.02661533 -0.07225964 0.030671844 -0.05691066
0.06849807 -0.119755924 0.077266075 0.09699615 -0.14028299 -0.09608131 -0.07746365 0.092594646
-0.035289843 0.028531978 -0.10495178 0.011915392 0.109064266 0.052901465 -0.08176876 -0.028702473
-0.039664835 0.028681502 -0.101905264 0.06240496 -0.05434164 -0.10171986 0.08440654 -0.052309595
-0.09005272 -0.093022406 -0.09463586 0.11784892 -0.14848149 -0.041137017 -0.124435164 -0.06060348
-0.1243964 0.049306374 -0.14196402 0.054435685 -0.01989861 0.018412873 -0.16554138 -0.022512846
-0.06899802 0.08175288 0.05545839 -0.16513427 0.026085183 0.104198046 -0.048277795 -0.16081512
-0.017174697 -0.044400916 0.009133896 -0.06777239 0.00807769 0.010860296 0.07112689 0.07541599
0.087504104 -0.05439672 0.029749814 -0.032614525 -0.11816713 0.06762304 0.09512001 0.007913299
-0.08849798 0.07132978 0.06066295 -0.009908086 0.07166488 0.044761665 0.07780186 0.009768124
-0.10253756 -0.050198857 -0.033673696 0.055031225 -0.077680275 0.098741695 0.11524178 -0.040555745
0.10667696 0.031763904 0.00916419 -0.07069672 -0.08792415 0.019422194 -0.09463148 0.124176905
-0.0904935 -0.10397505 -0.0945301 -0.08994376 -0.121796295 -0.088915326 -0.17397805 -0.07392045
-0.13156831 -0.0132625485 -0.06338521 -0.08488169 -0.056544732 -0.1597196 -0.025721481 -0.14353347
-0.104027055 0.10443011 -0.053985715 -0.11435953 0.024805667 0.09056141 0.07390334 -0.09353839
-0.050643306 0.08579481 0.035611656 -0.032190133 -0.0433948 -0.132062 -0.10713794 0.020510683
0.04782047 -0.12670584 0.086224556 -0.12736183 0.07548781 -0.10278521 0.045533825 -0.0442879
-0.07454058 0.10870191 0.09796553 0.0031456074 -0.012958571 0.031272944 0.100972325 -0.1166967
-0.12738176 -0.12705325 0.10221174 -0.030097727 -0.10128869 -0.13518041 -0.09714363 -0.054243855
-0.041504577 -0.028517112 -0.097273424 0.111880824 -0.115210876 0.06590732 -0.121118546 0.088592924
-0.12075853 0.024412803 0.028899176 -0.08930278 0.024300344 0.038302172 -0.06087241 -0.06436347
-0.053166952 0.06282557 0.11509575 0.027724821 -0.05562749 0.1174285 -0.024306227 -0.11266018
-0.010100812 0.00038910072 0.050117698 -0.005002074 -0.11809235 -0.051171526 -0.13237555 0.048001442
-0.10568768 0.035531946 0.06251814 0.0052485857 0.090609 -0.095394805 -0.11089749 0.08524225

sequential/dense/BiasAdd/ReadVariableOp/resource f4 [50]
00000000: a23b 87bb 446c 34bc 85f4 68bc 0e75 48bc
00000010: 150f 98ba d085 2ebc fea9 1a3d f1b1 31bc
00000020: dad1 48bd 0f11 1ebc 3aec 8ebd 7150 45bd
00000030: 64a5 2bbd dc2b 35bd a650 dabb 64ad 99bb
00000040: 264a c2ba ded9 f7bc 7c52 81bd 6d66 bfbb
00000050: 0d4d 5d3d 4230 033d 60f1 4cbc 9b39 15bd
00000060: de77 d8bc 50f1 c6bc c72e 79bc 0896 0bbd
00000070: 54c4 d2bc 14ca 56bd b6cb 0fbd c982 96b9
00000080: 00ad 5cbd 79b9 ad3c 8928 afba b78e 2abc
00000090: 4838 1cbc b9f4 39bd 8dad d1ba 93c7 48bc
000000a0: 90ff 6dbb 1209 94bb 4eb0 bbba 927d c2bb
000000b0: e25f e6b9 44b9 09bb 44a0 debc aaf2 20bc
000000c0: 6673 0dba 3ee3 c1bc
-0.004126982 -0.011012141 -0.014218454 -0.012234939 -0.0011601174 -0.010652021 0.037759773 -0.010845647
-0.049028255 -0.009647622 -0.069786504 -0.048172418 -0.041905776 -0.04423128 -0.006662446 -0.004689859
-0.0014823123 -0.030255254 -0.06314561 -0.0058410675 0.05402856 0.032028444 -0.01250872 -0.03643189
-0.026424345 -0.024284989 -0.0152089065 -0.034078628 -0.025728382 -0.05243881 -0.035106383 -0.00028707672
-0.053875923 0.021206604 -0.0013363521 -0.010410002 -0.009534903 -0.0453994 -0.0015997157 -0.012254613
-0.0036315657 -0.004517683 -0.0014319511 -0.0059353793 -0.00043940457 -0.0021014968 -0.02717603 -0.009823481
-0.0005395919 -0.023667928

sequential/dense_1/BiasAdd/ReadVariableOp/resource f4 [100]
00000000: 6448 f6bc 72c4 b9bc 0eee 19bc 5da0 23bc
00000010: d2d3 8cbc cfcc 82bc de3a 54bc 9276 86bc
00000020: 8f74 dbbc bf11 a8bc 583c 523c 137a b7bb
00000030: d9da 9dbc 47c4 a8bc 6ed4 97bb 84b1 bbbc
00000040: b586 b1bc debb f4bb 9da8 2439 e81a cbbb
00000050: 3e15 64bc d279 08bc 8428 0c3c 3e64 3dbd
00000060: a349 65ba 8b57 6bbc 743f 81bc ae7e 53ba
00000070: 61d1 9cbb 4a79 f839 3eca c5bc c133 fbbb
00000080: 92b5 bcbc 9c0c eebc 63aa 16bd 1c8e 9abc
00000090: 42da 60bc 5b7c 30bc 0000 0000 b752 01bd
000000a0: 5caa 24bd 30a7 b6bc 2a7c 3ebd 23b7 9bbc
000000b0: a6a6 00bd eb57 e1bc 4067 83bd d69e 0c3c
000000c0: 4ee8 8fbc 1bd0 c9bc 337d 18bd 46a2 42ba
000000d0: f354 9bbc ad15 33bd 8009 e43a d163 42bd
000000e0: 7109 2cbc f831 11bc 685f 0d3c 3d75 19bd
000000f0: 54c8 abbc 9aed 8fbc a0de 58bc 6bf1 c6bb
00000100: 4c14 cc3b f9f0 3fbc 325b dbbc 4a27 633b
00000110: aff6 fbbc 23db a7bc 1530 62bd aec7 76bc
00000120: 25f4 1fbc 28d0 94bc 0005 12bd ad3d e6bc
00000130: 4861 12bc 6a1a 34bc 4b33 01bc c8dd 50bc
00000140: ad57 4bbd 491c cabc b3f4 4fbc 53c5 a7bc
00000150: a7a1 b5bc 8ea0 e4bb 94b8 ddbc 1391 0dbc
00000160: 80e6 523a ba9c 7aba 4564 0fbd 09c1 cabc
00000170: a84a b3bb 57f4 4cbc bada 15bd 0000 0000
00000180: a434 2bbb 0796 94bc 1477 06bc 6ff4 3bbc
-0.030063815 -0.02267668 -0.009395136 -0.009986964 -0.017190848 -0.015966801 -0.012953488 -0.01641396
-0.026788978 -0.020516274 0.01283177 -0.005599269 -0.019269394 -0.020601405 -0.004633478 -0.022911794
-0.021670679 -0.0074686846 0.00015703072 -0.006198276 -0.01392108 -0.0083298255 0.008554582 -0.046238177
-0.00087466295 -0.014364134 -0.015777327 -0.0008067888 -0.004785702 0.00047392613 -0.024144288 -0.0076660817
-0.023035798 -0.029058747 -0.036783587 -0.018866591 -0.013723912 -0.010771836 0.0 -0.031573024
-0.04020153 -0.022296518 -0.04650513 -0.019008225 -0.03140893 -0.027507743 -0.06416178 0.008582791
-0.017566826 -0.024635365 -0.037228774 -0.00074246933 -0.018961405 -0.043721844 0.0017397851 -0.047458474
-0.010500298 -0.008862011 0.008628704 -0.037465323 -0.020969547 -0.017569352 -0.013236672 -0.0060712597
0.0062280055 -0.011715167 -0.026776884 0.003466087 -0.030757276 -0.020490235 -0.055221636 -0.015062256
-0.009762798 -0.018165663 -0.0356493 -0.028105581 -0.0089343265 -0.010992626 -0.007885764 -0.012748189
-0.04964416 -0.02467169 -0.012692618 -0.020479834 -0.022171808 -0.0069771474 -0.027065553 -0.008640545
0.00080452114 -0.0009560097 -0.035007734 -0.02475025 -0.005471546 -0.012509427 -0.036585547 0.0
-0.0026123906 -0.018137945 -0.008207101 -0.011471852

sequential/dense_2/BiasAdd/ReadVariableOp/resource f4 [200]
00000000: 2722 33b8 afb7 9bbc df09 02bd 6a50 d6bc
00000010: 4fa9 06b5 3e47 b4bb 14ce 00bd 0000 0000
00000020: 0ccb a2bc ba55 cdbc 82f2 94bb ba4d d8bb
00000030: 8d5e bfbc 815f d5bc 893c c4bb 0000 0000
00000040: 98f3 2dbc 0b57 9ebc 17e8 6cb7 d4f9 933c
00000050: 0a69 e8bb 29ce cfbc 0b1b 73bc 7027 94bc
00000060: b121 56bc d14b 49bc 6b99 57bc 61d1 52bc
00000070: 3881 02bc d038 cdb9 9733 4dbc b2a7 0bbd
00000080: e72e b1bc 7040 94bc d96c 74bc e59e af3c
00000090: 431a 62bc 36ef 06ba 7847 fbbb 1841 90bc
000000a0: 9379 88bb db36 acbc ff6e d1bc a20d 9ebb
000000b0: 7fca c4b9 7ab1 f73c 54e6 0fb5 6a1e cebc
000000c0: dc19 2bb5 5036 3cb7 fe01 51bb 5606 5bbc
000000d0: ddc6 bfbc bba9 483c ee8f f5bc 1040 11bc
000000e0: cd81 b7bc f589 aabb 696f 013a c7c8 3ebc
000000f0: 57ed 753d 0219 333d 25ac 1dbd a81c 1bbc
00000100: 8616 8dbc 25d5 cbbc 2334 243c 97f5 dd37
00000110: 390c 46bd 2f4a 0fbd 07c4 32ba 6a0b a6bc
00000120: 9717 b2ba 4083 0fbd 4c0c a5ba 97fc 78bc
00000130: 5bd9 16bd 0bc3 b5bc 1c29 83ba 05c3 43bc
00000140: dac8 0dbd 628a 333b c17e b2bc 04f0 80ba
00000150: b0b3 35bc 86e8 c9bc 1450 e1bc 6abd 11b8
00000160: 4425 0dbc 4965 5abc ed4e 9cbc b703 afbc
00000170: e413 89bc 1990 dfbc c4a5 53bc 1a65 a7bb
00000180: c7ce 17bc 9fd5 4e3c d368 e83c 772e a2bc
00000190: 7e0f 1a3b f7cf ebbc 2ece 03bc 9615 af38
000001a0: eafb 46bc 6c09 45bc 3752 48b8 1165 7bbc
000001b0: fcc3 9fbc fb55 d5bb 173a d0bc 3d8f bfbc
000001c0: 0ad3 d5bb 9527 cebc 52ed a9bc 6b5c 86bc
000001d0: d143 15bc 0155 623c c0c5 3cbc e70b 67bc
000001e0: 978d 56b5 a9c9 5fbc fbdc 7a3c fa16 d0bc
000001f0: c046 cdbb 328a 00bd 3021 c7bc a0a9 bcbc
00000200: 4839 00bc f90a b9bc 1160 98bc 3d27 e7bc
00000210: 8178 213d 9fee 573d afec 92bc 8517 52bc
00000220: 02c0 f9bc 0c55 adb5 a9ab d1bc 6359 cebc
00000230: e3d2 60bb ab5a c1bc 9742 4dbc b124 91b8
00000240: c4e5 acbc 183e 68bd 7884 c9b6 fe1b 13bc
00000250: 9834 d7bc c177 cbbc 451f 3ebc b5e3 dabc
00000260: 71c0 96bc bf6c 463d 284d 16bd e8a5 dfbc
00000270: 1d30 4bbc ec7e 89bc 91c0 2dbc 3691 afbc
00000280: 518a 22bc b245 82bc db3d 02b4 dcee 88bc
00000290: 3a8c ffbb 55ce debc ca22 fabc b93d 01bd
000002a0: b933 41bb 786d 3cbc 6931 efbb ce17 dbbb
000002b0: 7fb4 17bb 08f6 ecbc df36 0bbd 2059 00bd
000002c0: 65dc 1bbc b993 06bd df78 c7bc cf6b ccbc
000002d0: b4ca 25bb 81be 68bc a78c d1bc ee39 edbc
000002e0: d674 c4bb dd88 91bc 26dc 4ebc e6d8 b5bc
000002f0: 22e5 cbbb 1878 babc 3e58 483d 527f 00bc
00000300: 6f16 41bd 1b3d 02bd 68e5 a5b4 a997 ba3d
00000310: bae9 84ba 4510 7339 5ac0 cabc 3d2c e0bc
-4.2708733e-05 -0.019008486 -0.031747695 -0.026161391 -5.0165266e-07 -0.005501657 -0.03144653 0.0
-0.01987221 -0.025065292 -0.0045455107 -0.0066010626 -0.023360515 -0.026046516 -0.0059886617 0.0
-0.010617159 -0.019328615 -1.4120734e-05 0.018063463 -0.0070925998 -0.02536686 -0.0148379905 -0.018085212
-0.013069556 -0.012286142 -0.013159136 -0.012867303 -0.007965378 -0.00039142976 -0.012524507 -0.034095474
-0.02162881 -0.018097132 -0.014918529 0.021438072 -0.013800207 -0.00051473395 -0.007668432 -0.017609164
-0.0041648834 -0.02102225 -0.025565622 -0.0048234025 -0.00037534905 0.030235995 -5.360682e-07 -0.025160987
-6.3740094e-07 -1.1218319e-05 -0.0031892057 -0.01336821 -0.023410255 0.012247498 -0.029975858 -0.008865371
-0.022400761 -0.005204434 0.0004937561 -0.011644549 0.060040798 0.04372502 -0.038494248 -0.009467281
-0.017222654 -0.024881909 0.010022196 2.6459615e-05 -0.0483515 -0.034982856 -0.00068193715 -0.020269115
-0.0013587353 -0.03503728 -0.0012592166 -0.015196941 -0.03682838 -0.02218773 -0.0010006758 -0.011948352
-0.034615375 0.0027395715 -0.021788957 -0.0009837155 -0.011090204 -0.024647009 -0.027504005 -3.47471e-05
-0.008614842 -0.013329812 -0.019080603 -0.021364076 -0.016733117 -0.02729039 -0.01291794 -0.005108488
-0.009265608 0.012624173 0.028370297 -0.019797547 0.002350777 -0.028785689 -0.008044763 8.348671e-05
-0.012145022 -0.012026172 -4.7760284e-05 -0.01534392 -0.019502632 -0.006510494 -0.025418324 -0.023383731
-0.006525402 -0.025165359 -0.020743046 -0.01640149 -0.009110407 0.013814212 -0.011521757 -0.014101959
-7.992725e-07 -0.013658919 0.015311475 -0.025401581 -0.0062645376 -0.031381793 -0.024307817 -0.023030102
-0.007826157 -0.02258824 -0.018600496 -0.028216952 0.039421562 0.0527178 -0.017935125 -0.01282299
-0.030487064 -1.2914256e-06 -0.02559455 -0.025189107 -0.0034305386 -0.023602804 -0.012528083 -6.920973e-05
-0.021105655 -0.056699842 -6.005688e-06 -0.008978842 -0.026270196 -0.024837377 -0.011604135 -0.026719907
-0.01840231 0.048443552 -0.036694676 -0.02730079 -0.012401608 -0.016784154 -0.010604993 -0.021431547
-0.0099206725 -0.015902374 -1.2129696e-07 -0.01671546 -0.0077986987 -0.027197996 -0.030534167 -0.031553004
-0.0029480292 -0.011500709 -0.0072995913 -0.0066861873 -0.0023148356 -0.02892591 -0.033987876 -0.031334996
-0.009512995 -0.032855723 -0.024349628 -0.02495375 -0.0025297822 -0.014205576 -0.025579764 -0.028958287
-0.0059953732 -0.017765457 -0.01262573 -0.022198152 -0.006222383 -0.022762343 0.04891228 -0.0078428555
-0.047140535 -0.031796556 -3.090056e-07 0.09110958 -0.0010140457 0.00023180347 -0.024749923 -0.027364844

sequential/dense_3/BiasAdd/ReadVariableOp/resource f4 [2]
00000000: 163b a63d 163b a6bd
0.081167385 -0.081167385
